frame_work/pre_trained/statichyper_gru_32/best_params.pt (torch, 125810 bytes, 11 tensors)

linear_out.weight f4 [1, 32]
-0.021733996 -0.004696364 0.0425411 0.026420264 -0.13100736 -0.058044728 -0.060281996 -0.010385571
0.0018893633 -0.08852213 0.12182379 -0.024147067 0.0047742096 0.06763484 -0.114968754 -0.060654934
0.015385637 0.009617821 -0.16943061 -0.19513504 0.16008441 -0.0045971423 0.109111 0.016313842
0.19699042 -0.05902731 -0.0011057095 0.057847187 0.17086296 -0.22053154 -0.31616104 0.02278382
00000000: 7e0b b2bc f5e3 99bb 943f 2e3d 4f6f d83c
00000010: cb26 06be 4fc0 6dbd 41ea 76bd 3e28 2abc
00000020: 83a4 f73a 174b b5bd c07e f93d 12d0 c5bc
00000030: f970 9c3b 2384 8a3d bd74 ebbd 4f71 78bd
00000040: 0a14 7c3c 1194 1d3c 387f 2dbe 7bd1 47be
00000050: 2bed 233e a0a3 96bb 9775 df3d 9ba4 853c
00000060: dbb7 493e 9fc6 71bd 74ed 90ba 2cf1 6c3d
00000070: b3f6 2e3e 05d3 61be dcdf a1be 22a5 ba3c

cond_mlp.0.0.weight f4 [8, 2]
-0.51147985 0.09325011 0.58717704 0.07199066 0.057276823 0.0069730026 -0.059554465 0.01787283
-0.008286009 0.3641156 0.5538765 -0.08480726 -0.40550902 0.01658299 -0.019069253 -0.33433124
00000000: 58f0 02bf eaf9 be3d 3c51 163f d76f 933d
00000010: 1a9b 6a3d c97d e43b 62ef 73bd 0b6a 923c
00000020: 0ac2 07bc 5c6d ba3e daca 0d3f 6eaf adbd
00000030: e19e cfbe 0dd9 873c 1f37 9cbc 772d abbe

cond_mlp.0.0.bias f4 [8]
-0.32794467 0.06471291 0.42443466 0.49156758 0.1368299 0.30400017 -0.21938188 0.10681932
00000000: 5de8 a7be 3488 843d 804f d93e bfae fb3e
00000010: 231d 0c3e e9a5 9b3e a5a5 60be 16c4 da3d

proj_ih.weight f4 [96, 8]
-0.11394078 2.2878478 1.942791 1.8083975 1.1925588 2.1296139 0.03169452 1.4999816
1.3432872 -2.54985 -2.3371356 -2.116382 -1.8712937 -2.3033187 1.3441812 -0.96962255
0.37858555 0.029176483 -0.06900285 -0.17021614 -0.0061858045 -0.4204421 0.51338035 -0.558053
0.17065354 -0.66562015 -1.2358071 -0.91082674 -2.1850755 -0.6111868 0.5436958 1.4866786
-1.0214735 -0.33690098 0.7952763 0.07230264 -2.359256 0.51766735 -0.7101744 2.033065
0.09847827 0.11062143 -0.49731657 -0.6703875 0.013244023 0.104192115 0.0008156606 -0.56446457
-0.29616198 0.67094374 0.42123556 0.23856069 0.3247603 0.3057022 -0.4254827 -0.3373247
-0.9638795 1.4014134 0.49618 0.21223332 0.5455578 1.4777809 -0.83993495 0.027554918
0.23699427 -0.30451363 -0.043838724 -0.023502348 -0.16158175 -0.047569554 0.16345601 0.39752448
-0.0035256674 -0.91120386 -0.38283756 -0.22836964 -0.20287924 -0.094104454 -0.32207423 0.09416148
0.19938901 -1.5503416 -2.1156178 -1.8257071 -3.2237387 -0.9453514 0.10521637 1.4970071
-0.2559917 0.042938504 -0.38261914 -0.1641162 -0.2860751 -0.29733148 0.38681465 -0.38993984
1.5468335 -2.0133195 -1.1003836 -0.9260932 -0.71892923 -1.9485923 2.0154026 -0.1965463
-0.36440876 0.23778448 -0.23677872 0.06877204 0.053440485 0.025336219 -0.4443494 0.32238787
0.35134917 -0.3451703 -0.13985084 -0.6337775 -0.24951181 -0.23482783 0.11549866 -0.12751521
2.6331546 -1.6205653 -0.96580887 -0.5192584 -1.0359066 -1.5952241 2.5984776 1.1398506
-0.22105578 -0.97849554 -1.013094 -0.6448901 -1.1869297 -1.2110342 0.2785031 -0.3681212
-0.29902986 0.06486329 0.05769778 0.06449325 -0.17251241 -0.4121027 0.048470657 -0.06719551
-0.081418596 0.17864303 0.17309147 -0.04247889 0.03103083 -0.09581305 -0.123026736 0.3527376
0.24771254 -0.028198808 0.12381203 -0.074285924 -0.009482825 -0.26920402 0.21603774 0.3077173
-1.0189226 0.5032118 0.20791192 0.39578292 1.0762928 0.9603102 -0.88598675 0.10266767
0.44394153 -0.5116529 -0.44112512 -0.28344837 -0.8129475 -0.30765346 0.74514204 0.02792937
0.12548919 0.3450333 0.25647157 0.5247623 0.049003784 0.556097 -0.19455805 0.24772704
-1.5187386 2.3960094 1.820853 1.5936371 2.3753245 2.353457 -1.3110147 0.72250897
-0.27194545 0.28403816 0.049742136 0.053757705 0.9872857 0.3057168 -0.47092327 -0.3708363
0.29074642 -1.1853092 0.5058908 0.13695532 0.44077942 -0.84935534 0.61812747 -0.52201784
0.7119045 -0.83185446 -0.19903898 -0.037024315 0.049889788 -0.89420134 0.42367393 0.3146182
0.19267817 -1.123253 0.055817872 0.30145732 -0.3246321 -0.8227596 0.64560294 0.5340863
-0.5907787 0.18865293 -0.21191941 -0.21899162 -0.17823909 0.22821525 -0.65102106 0.18719858
0.13846771 0.44930708 0.8188567 0.4642576 0.76336014 0.27526525 0.29152253 -0.04393303
0.50347036 -0.05100418 -0.1866816 -0.094510175 -0.4095486 0.19240645 0.26881084 -0.48857775
-0.6801376 1.1416886 0.37648332 0.34830317 0.38111404 0.79489785 -0.874932 -0.19174269
00000000: c959 e9bd 196c 1240 60ad f83f 9279 e73f
00000010: c4a5 983f 984b 0840 1dd2 013d 66ff bf3f
00000020: d6f0 ab3f be30 23c0 a193 15c0 cd72 07c0
00000030: 8d86 efbf 9369 13c0 210e ac3f 2f39 78bf
00000040: f7d5 c13e 8503 ef3c 5e51 8dbd 244d 2ebe
00000050: 4ab2 cabb 3044 d7be e56c 033f 90dc 0ebf
00000060: cdbf 2e3e 1566 2abf ed2e 9ebf f12b 69bf
00000070: 47d8 0bc0 bd76 1cbf a62f 0b3f 7c4b be3f
00000080: a5bf 82bf 497e acbe 3a97 4b3f 6813 943d
00000090: 0dfe 16c0 d985 043f fdcd 35bf bd1d 0240
000000a0: faae c93d 7d8d e23d 47a0 febe 849e 2bbf
000000b0: 75fd 583c ad62 d53d 0ed2 553a c080 10bf
000000c0: 8ba2 97be f8c2 2b3f 30ac d73e 4149 743e
000000d0: fb46 a63e 0085 9c3e ded8 d9be d3b5 acbe
000000e0: cfc0 76bf 8461 b33f 4e0b fe3e b153 593e
000000f0: ada9 0b3f ed27 bd3f fa05 57bf daba e13c
00000100: a0ae 723e 36e9 9bbe 3c90 33bd ff87 c0bc
00000110: b075 25be 4bd8 42bd 0361 273e 5488 cb3e
00000120: e20e 67bb a844 69bf 4903 c4be bbd9 69be
00000130: 93bf 4fbe d6b9 c0bd eae6 a4be bcd7 c03d
00000140: a22c 4c3e 9871 c6bf 4866 07c0 c5b0 e9bf
00000150: bc51 4ec0 8d02 72bf ae7b d73d ee9d bf3f
00000160: 5811 83be 49e0 2f3d a8e6 c3be 140e 28be
00000170: 6f78 92be d53b 98be 920c c63e 32a6 c7be
00000180: a4fe c53f 3ada 00c0 5fd9 8cbf 7214 6dbf
00000190: bf0b 38bf 796b f9bf 5bfc 0040 6f43 49be
000001a0: c993 babe c67d 733e 1f76 72be 5bd8 8c3d
000001b0: 69e4 5a3d e78d cf3c c481 e3be 0610 a53e
000001c0: 0ae4 b33e 29ba b0be 0f35 0fbe 3e3f 22bf
000001d0: 0680 7fbe b576 70be 908a ec3d 5993 02be
000001e0: 9b85 2840 af6e cfbf 403f 77bf 1eee 04bf
000001f0: 9698 84bf 4e30 ccbf 754d 2640 a0e6 913f
00000200: 725c 62be af7e 7abf 10ad 81bf 8517 25bf
00000210: 50ed 97bf 2b03 9bbf f597 8e3e 627a bcbe
00000220: 711a 99be 0bd7 843d 8254 6c3d 0915 843d
00000230: 18a7 30be 20ff d2be 2b89 463d cd9d 89bd
00000240: cbbe a6bd 33ee 363e e43e 313e 58fe 2dbd
00000250: 5e34 fe3c a239 c4bd 71f5 fbbd 069a b43e
00000260: 5ba8 7d3e 3001 e7bc 2991 fd3d 3823 98bd
00000270: da5d 1bbc 1cd5 89be ff38 5d3e 1f8d 9d3e
00000280: 0e6c 82bf 7dd2 003f dde6 543e 0fa4 ca3e
00000290: f6c3 893f e4d6 753f 07d0 62bf 6d43 d23d
000002a0: 4e4c e33e affb 02bf 27db e1be 2520 91be
000002b0: 541d 50bf c184 9dbe a1c1 3e3f 22cc e43c
000002c0: 3d80 003e 34a8 b03e 3e50 833e d256 063f
000002d0: 31b8 483d 5f5c 0e3f 3a3a 47be 28ac 7d3e
000002e0: 0766 c2bf 3858 1940 b611 e93f 4dfc cb3f
000002f0: 5105 1840 0a9f 1640 54cf a7bf 59f6 383f
00000300: 6f3c 8bbe 736d 913e 69be 4b3d 0a31 5c3d
00000310: c1be 7c3f ea86 9c3e db1c f1be 41de bdbe
00000320: b7dc 943e 36b8 97bf 0f82 013f 043e 0c3e
00000330: d7ad e13e 5a6f 59bf 9a3d 1e3f f6a2 05bf
00000340: 603f 363f 6af4 54bf e0d0 4bbe cfa6 17bd
00000350: 3c59 4c3d 61ea 64bf caeb d83e a315 a13e
00000360: 6d4d 453e c1c6 8fbf 48a1 643d 9d58 9a3e
00000370: 2e36 a6be 60a0 52bf 3c46 253f e1b9 083f
00000380: 463d 17bf 3c2e 413e 6701 59be 573f 60be
00000390: 4f84 36be 42b1 693e 51a9 26bf fcb0 3f3e
000003a0: 7bca 0d3e 940b e63e 98a0 513f 2cb3 ed3e
000003b0: 926b 433f 91ef 8c3e 7142 953e 1ff3 33bd
000003c0: 6fe3 003f c2e9 50bd 7629 3fbe 8d8e c1bd
000003d0: 5bb0 d1be 3206 453e 93a1 893e dd26 fabe
000003e0: 7f1d 2ebf da22 923f 6cc2 c03e cb54 b23e
000003f0: 6121 c33e 6d7e 4b3f 8bfb 5fbf 3258 44be

proj_ih.bias f4 [96]
1.8424412 -2.2522473 -0.22685787 -0.76899713 0.35673228 -0.057804633 0.72614765 0.5366164
0.23164967 -0.42917454 -1.548706 -0.09564527 -0.8901323 -0.23151016 -0.2351889 -0.5896923
-1.1274981 -0.24174333 -0.20770854 -0.20440763 0.36201993 -0.015476398 0.6223116 1.793419
0.18655564 0.18842605 -0.36066523 -0.3021138 -0.037587635 0.20694917 -0.3770315 0.6974485
-1.1536425 -0.35914788 0.16755868 -0.22741789 -0.14946653 0.06560421 -0.47323242 0.12841448
-0.56343186 0.24628668 -0.78658843 -1.2202121 -3.4074237 -0.22359143 -0.047213256 -1.7994616
1.3775978 0.55109787 -0.34590265 0.038984634 0.11362154 -0.5120184 0.09528533 -0.763424
0.32107377 0.9954884 -0.164795 0.19545963 -0.25739276 0.2586178 0.025573362 -1.1052909
0.68862885 0.104878 0.10649322 -0.2165246 -0.032459233 -0.11896945 -0.15894108 0.6502869
2.2226963 0.14681453 0.22819291 -0.79065555 1.035467 0.15931971 0.13926117 -0.33190724
-0.5531198 0.26636824 0.7834248 -0.100751266 0.10230612 -0.43036819 -0.61651695 1.5265474
0.42213625 -1.3777398 2.538835 0.37366703 0.21513735 -0.19747217 0.29561907 -0.024010079
00000000: 1dd5 eb3f d224 10c0 6e4d 68be ffdc 44bf
00000010: 9da5 b63e 8dc4 6cbd d0e4 393f b15f 093f
00000020: 9235 6d3e c4bc dbbe 003c c6bf abe1 c3bd
00000030: b6df 63bf 0011 6dbe 5cd5 70be 13f6 16bf
00000040: dc51 90bf 908b 77be 8cb1 54be 3c50 51be
00000050: ad5a b93e b890 7dbc d04f 1f3f c18e e53f
00000060: 7108 3f3e c2f2 403e 1da9 b8be a9ae 9abe
00000070: 7ef5 19bd 7cea 533e 460a c1be fc8b 323f
00000080: 8faa 93bf 3be2 b7be 8194 2b3e 3ce0 68be
00000090: c10d 19be 805b 863d 854b f2be 167f 033e
000000a0: 123d 10bf 9332 7c3e dc5d 49bf e92f 9cbf
000000b0: 3b13 5ac0 27f5 64be b062 41bd c254 e6bf
000000c0: 2055 b03f c014 0d3f 271a b1be 5aae 1f3d
000000d0: 69b2 e83d a313 03bf f524 c33d c16f 43bf
000000e0: c863 a43e 54d8 7e3f 05c0 28be 9226 483e
000000f0: fcc8 83be 8d69 843e 3a7f d13c 2c7a 8dbf
00000100: fb49 303f 47ca d63d 1e19 da3d a0b8 5dbe
00000110: f9f3 04bd 41a6 f3bd 73c1 22be 3479 263f
00000120: a840 0e40 8c56 163e 67ab 693e 6768 4abf
00000130: 2f8a 843f b524 233e 7b9a 0e3e bfef a9be
00000140: 4299 0dbf 6b61 883e 878e 483f ae56 cebd
00000150: df85 d13d 3859 dcbe 0ed4 1dbf e865 c33f
00000160: 3e22 d83e c759 b0bf 467c 2240 4951 bf3e
00000170: f74c 5c3e 2536 4abe 625b 973e c9b0 c4bc

proj_hh.weight f4 [3072, 8]
-0.032478623 0.36498806 -0.3612714 -0.15623133 -0.20607157 0.25368223 0.1312096 0.20072563
-0.59959733 -0.3277739 0.026214842 0.32440415 -0.20874563 -0.17920168 -0.5253824 0.27952597
0.12474196 -0.03555961 0.43243346 0.14811315 0.39124224 -0.22324944 0.009507886 -0.020655625
-0.2706488 -0.040704526 0.047451008 0.004953262 0.8266427 0.035910152 -0.28103808 -0.53468674
-0.89163464 -0.67665875 0.91391176 0.8983232 1.0471513 0.3006696 -0.90567315 -0.10879858
0.5195148 -0.5956732 -0.26197717 0.1570827 0.61807024 0.022940226 0.53127664 -0.025872841
0.06225895 0.037791375 -0.41662776 -0.0073229396 -0.5344599 0.2895702 -0.10431627 -0.086597174
-0.87494844 -0.19659923 -0.38923812 0.18720421 0.42100897 -0.45857114 -0.6762442 -0.21946768
0.2744505 -0.44298062 0.20143607 -0.08076236 0.28045657 0.025007218 -0.46205306 0.35271695
-0.2975065 0.09518865 -0.5415241 -0.28504232 0.10155215 -0.27045098 -0.031249642 -0.15416393
1.74482 -1.6281018 -0.88240576 -0.25447264 -0.84614456 -1.0116454 1.6030095 0.13975202
-0.1495103 -0.49307266 0.07621783 -0.15260436 -0.23502092 -0.32086778 0.10348945 0.6614571
0.3126536 -0.09559126 -0.45013 -0.22818452 0.2889197 -0.18520632 0.37946618 -0.23785749
-0.044949066 0.20244873 0.26699886 0.040479686 0.1779779 0.23009312 0.1296398 0.15674335
0.371787 -0.35740787 0.16536903 0.2964546 0.41391864 -0.5010279 0.65366364 -0.9691371
-0.118240945 0.14683716 0.55473137 0.1236778 0.6882373 0.20406647 -0.06660681 0.17842655
0.49799547 0.27144292 -0.44736215 0.05854542 -0.21550004 0.008741624 0.1316561 -0.38828224
0.24803472 0.34189847 0.10104775 0.2688955 -0.079111405 0.13361901 0.27057493 0.18651165
0.15891474 0.018074855 0.18092941 0.08719703 0.06851026 0.092168435 0.40596357 -0.5149424
0.28865936 0.026384326 -0.040899612 0.21921912 0.16830656 0.36124858 0.07058301 0.42107493
-0.042984154 0.14568685 -0.09032562 0.4764446 0.35249513 0.19664629 0.0876136 0.06929604
-0.22429435 0.26313344 -0.12383341 -0.039820142 -0.025801752 0.26293123 0.025046961 -0.53983057
0.18014668 0.1600604 0.14012453 0.10259085 -0.03424454 -0.29533038 0.8650891 -0.45089936
0.12033511 -0.18676832 -0.08165259 -0.060016405 -0.102174796 -0.41443193 0.23258497 0.3497251
0.17967981 -0.10482692 -0.33969036 -0.12577027 0.9651877 -0.20214944 -0.24743663 -0.012984041
0.7958152 -0.63733315 -0.15899327 0.098135985 0.273313 -0.17112318 0.3434343 0.0012742073
-0.028479626 -0.18690865 -0.07845457 0.12359865 -0.22222525 -0.04750106 -0.4626283 -0.35043836
-0.08972834 0.27279344 0.037363872 -0.099880345 -0.22007118 0.42962176 0.28059477 -0.14894134
0.38396636 0.012825601 0.21006773 0.28323293 -0.24262963 0.04521082 0.1689248 -0.06847745
-0.120595545 0.29490882 -0.296376 -0.014464858 0.4654866 0.115489684 0.08019862 0.38828436
0.10477267 0.061764147 -0.09102179 -0.063684024 0.09518764 0.035962313 0.67598474 -0.2720162
-0.54147434 0.20668729 0.046700068 0.38405025 0.37067187 0.068714075 -0.19788054 -0.44729155
00000000: 4e08 05bd b7df ba3e 91f8 b8be 1bfb 1fbe
00000010: 6d04 53be a3e2 813e cf5b 063e 058b 4d3e
00000020: 367f 19bf fbd1 a7be 82c0 d63c 4d18 a63e
00000030: 6ac1 55be a580 37be 767f 06bf 071e 8f3e
00000040: b678 ff3d f4a6 11bd eb67 dd3e f9aa 173e
00000050: e750 c83e 809b 64be f7c6 1b3c fc35 a9bc
00000060: 7b92 8abe cab9 26bd fd5b 423d f94e a23b
00000070: db9e 533f 8616 133d 39e4 8fbe 3be1 08bf
00000080: 2b42 64bf 8239 2dbf 1ff6 693f 82f8 653f
00000090: 0e09 863f 5ef1 993e 32da 67bf cad1 debd
000000a0: ecfe 043f 0a7e 18bf df21 86be 4ada 203e
000000b0: da39 1e3f 24ed bb3c bf01 083f 48f3 d3bc
000000c0: 3e03 7f3d 21cb 1a3d 3c50 d5be 45f5 efbb
000000d0: 5dd2 08bf 8c42 943e c5a3 d5bd dc59 b1bd
000000e0: 9ffc 5fbf 4f51 49be 384a c7be 76b2 3f3e
000000f0: 7d8e d73e d6c9 eabe 571e 2dbf 23bc 60be
00000100: c784 8c3e 5bce e2be 4245 4e3e bc66 a5bd
00000110: 0198 8f3e f0db cc3c 3892 ecbe 5197 b43e
00000120: c652 98be 44f2 c23d 53a1 0abf 11f1 91be
00000130: 93fa cf3d 8d78 8abe 40ff ffbc 26dd 1dbe
00000140: 4356 df3f a465 d0bf 58e5 61bf 3d4a 82be
00000150: ee9c 58bf 997d 81bf 6a2f cd3f 271b 0f3e
00000160: 3a19 19be 0574 fcbe 1818 9c3d 5144 1cbe
00000170: 53a9 70be c848 a4be 47f2 d33d 4155 293f
00000180: 2214 a03e 5ac5 c3bd 7077 e6be 34a9 69be
00000190: 48ed 933e baa6 3dbe 6449 c23e ea90 73be
000001a0: 831c 38bd b84e 4f3e 13b4 883e 07ce 253d
000001b0: d73f 363e 889d 6b3e 4cc0 043e 5481 203e
000001c0: de5a be3e 2afe b6be 8056 293e e6c8 973e
000001d0: 25ed d33e 5d43 00bf 8056 273f 5e19 78bf
000001e0: 4f28 f2bd 7b5c 163e e002 0e3f c94a fd3d
000001f0: 5230 303f cdf6 503e 2769 88bd 73b5 363e
00000200: 43f9 fe3e 91fa 8a3e a70c e5be 53cd 6f3d
00000210: 0bac 5cbe 0739 0f3c dbd0 063e eecc c6be
00000220: d0fc 7d3e 510d af3e 1ff2 ce3d acac 893e
00000230: 2905 a2bd 6cd3 083e cc88 8a3e e9fc 3e3e
00000240: 8cba 223e b811 943c 8f45 393e 5b94 b23d
00000250: 1b4f 8c3d cec2 bc3d 75da cf3e 44d3 03bf
00000260: 29cb 933e f123 d83c 5a86 27bd fa7a 603e
00000270: 8e58 2c3e 93f5 b83e d38d 903d 2297 d73e
00000280: 2710 30bd ef2e 153e a3fc b8bd 8cf0 f33e
00000290: 3e7a b43e a55d 493e c26e b33d 15eb 8d3d
000002a0: 6bad 65be 6db9 863e 5f9c fdbd 721a 23bd
000002b0: 325e d3bc ec9e 863e 492f cd3c 5632 0abf
000002c0: 5f78 383e e0e6 233e ce7c 0f3e 271b d23d
000002d0: 0144 0cbd 8b35 97be 7b76 5d3f 48dc e6be
000002e0: 4172 f63d 3240 3fbe 7939 a7bd c3d3 75bd
000002f0: 0541 d1bd 6c30 d4be c12a 6e3e 2b0f b33e
00000300: fcfd 373e 7faf d6bd e5eb adbe ecc9 00be
00000310: 8b16 773f 4300 4fbe 0760 7dbe 04bb 54bc
00000320: 8cba 4b3f 4428 23bf 22cf 22be 85fb c83d
00000330: aeef 8b3e ea3a 2fbe 9fd6 af3e 4d03 a73a
00000340: 1b4e e9bc fb64 3fbe caac a0bd 4a21 fd3d
00000350: 048f 63be 7990 42bd 9edd ecbe a86c b3be
00000360: 7ec3 b7bd 95ab 8b3e dc0a 193d 118e ccbd
00000370: 575a 61be 62f7 db3e 1eaa 8f3e 1484 18be
00000380: 3d97 c43e 7822 523c ff1b 573e e803 913e
00000390: e773 78be fb2e 393d 9ffa 2c3e e83d 8cbd
000003a0: ccfa f6bd 4afe 963e 98be 97be 03fe 6cbc
000003b0: 4254 ee3e db85 ec3d 2d3f a43d 35cd c63e
000003c0: 0e93 d63d 67fc 7c3d a269 babd c56c 82bd
000003d0: bdf1 c23d 384d 133d 560d 2d3f b545 8bbe
000003e0: 109e 0abf d5a5 533e 9248 3f3d 3ca2 c43e
000003f0: b4c8 bd3e f7b9 8c3d 32a1 4abe 6603 e5be

proj_hh.bias f4 [3072]
0.19355963 -0.39959636 0.16296239 0.4113122 0.7131884 -0.5092904 0.2064635 0.21800935
-0.0001639526 -0.1947198 -0.45184776 0.15983619 0.160069 -0.19114642 0.002943022 0.11121668
-0.3014778 -0.057950858 0.039722115 0.4468769 0.39904106 -0.18356737 -0.18338467 0.13137259
0.12637088 0.1548603 0.2781981 -0.13676967 0.036070116 0.4104311 0.22936305 -0.010611252
0.20230448 -0.6077674 0.2772988 0.04968859 0.19654168 0.37497228 0.22825374 0.24495207
0.32728794 -0.3008856 -0.20929146 -0.43747917 0.31915498 0.17272156 -0.47399276 -0.5994679
-0.34991258 0.51746625 0.4195383 -0.27866593 0.30142888 0.25781655 -0.17630512 -0.19175284
0.25960037 0.025069175 -0.21491544 -0.45060793 0.3654148 0.20150964 0.34613898 0.09488755
-0.38545117 -0.5004471 0.29379642 -0.51445216 0.10061045 0.12355824 -0.1600647 -0.13958268
0.22517098 -0.2192564 0.2725351 0.046744224 -0.5149976 -0.12084462 -0.2199294 -0.19594476
-0.08673415 0.38221234 0.124863096 -0.29191333 -0.079533294 0.22270754 -0.29730567 0.37281686
0.6229882 -0.5846739 -0.0662152 -0.2757216 -0.38019243 -0.019878082 -0.22544813 -0.44187602
0.10922566 -0.89462346 0.12144647 0.07436191 -0.36191258 -0.045940403 -0.3737833 0.24018322
0.07616126 0.11475729 -1.8099918 -0.040688273 0.06112855 0.14285626 -0.43294787 -0.22317724
-0.18039715 -0.06059902 0.13927414 -0.22540185 0.06423357 -0.22426611 0.072446436 -0.07509097
0.26443812 0.2525289 -0.20027329 -0.057124708 -0.3284979 0.21836118 0.41217226 0.055160094
0.09749431 0.5359631 -0.057355814 -0.48031405 0.43755054 0.049739964 0.27269927 0.40160033
-0.42927045 -0.41356742 -0.08141641 0.009359899 -0.08111846 -0.56446093 -0.39194387 -0.97458595
-0.17547575 0.19384845 -0.06388097 0.28294447 -0.21720064 0.07115072 0.20076256 0.08458805
0.19476551 0.32141075 0.011068721 -0.37378687 -0.35022715 -0.0936226 0.109750286 -0.20437232
-0.47889006 0.04447315 0.27778104 0.0005920978 -0.19831258 -0.037581604 -0.1377646 -0.11514666
-0.21542503 -0.39923996 0.029063873 -0.23987354 0.36653572 0.10202295 0.21451323 -0.4577297
-0.2096271 -0.21491231 -0.12515956 -0.16736925 0.23479481 -0.18244076 -0.022946361 0.17604958
-0.019591916 0.25303373 0.12162717 0.11865808 -0.15260604 0.1562761 0.18950614 -0.20089202
-0.0042578457 0.038652174 -0.22570655 -0.07648305 -0.6360229 -0.35443562 -0.2484443 0.13865006
0.11903084 0.1000191 0.33820727 0.1856811 -0.13554166 0.23454726 -0.5230572 -0.19398797
0.01590899 -0.4201556 0.25201488 -0.16226196 -0.14446206 0.19772567 -0.006479334 -0.085020185
-0.03683205 0.5431348 -0.22377048 0.07778421 -0.2548955 0.23978852 -0.06025257 0.09772538
-0.17321509 0.6079435 0.1940733 0.06971924 0.14768349 0.18201119 -0.34989092 -0.24589686
-0.74061257 -0.35564658 0.12164684 -0.090916045 0.22507843 0.0087003615 0.061604813 0.0638864
0.2598476 0.005867975 -0.0494331 0.021337902 -0.0041669826 -0.4800119 -0.00462728 0.15010379
0.3680326 0.1477255 -0.41793206 0.19219191 0.05335805 0.07396824 -0.39415017 0.10959266
00000000: 7f34 463e e597 ccbe 9ddf 263e 8397 d23e
00000010: 8493 363f db60 02bf 2b6b 533e d83d 5f3e
00000020: b1ea 2bb9 a164 47be 9758 e7be 19ac 233e
00000030: 21e9 233e e3bb 43be b7df 403b 92c5 e33d
00000040: 4c5b 9abe e15d 6dbd a8b3 223d 0dcd e43e
00000050: 1c4f cc3e 16f9 3bbe 31c9 3bbe 8986 063e
00000060: 5e67 013e b393 1e3e fb6f 8e3e 590d 0cbe
00000070: 42be 133d 0624 d23e 26de 6a3e d1da 2dbc
00000080: e828 4f3e a596 1bbf 1cfa 8d3e 4386 4b3d
00000090: 3942 493e 5efc bf3e 59bb 693e b7d4 7a3e
000000a0: 4992 a73e ad0d 9abe 8050 56be 45fd dfbe
000000b0: 4868 a33e ecdd 303e 2eaf f2be ba76 19bf
000000c0: be27 b3be ab78 043f b9cd d63e 4dad 8ebe
000000d0: e354 9a3e 8800 843e 5489 34be db5a 44be
000000e0: 57ea 843e df5d cd3c cb12 5cbe 15b6 e6be
000000f0: a617 bb3e 8b58 4e3e 2139 b13e 6754 c23d
00000100: db59 c5be 4d1d 00bf 7c6c 963e 23b3 03bf
00000110: da0c ce3d 1a0c fd3d 00e8 23be c3ee 0ebe
00000120: 3993 663e c084 60be b889 8b3e df76 3f3d
00000130: e2d6 03bf 627d f7bd 2c35 61be bea5 48be
00000140: ada1 b1bd 56b1 c33e 39b8 ff3d aa75 95be
00000150: 5ae2 a2bd 720d 643e 7338 98be dae1 be3e
00000160: 287c 1f3f 30ad 15bf d69b 87bd 622b 8dbe
00000170: 95a8 c2be 5cd7 a2bc e0db 66be 933d e2be
00000180: b4b1 df3d 0b06 65bf edb8 f83d 0f4b 983d
00000190: 9b4c b9be 012c 3cbd 8660 bfbe 97f2 753e
000001a0: 6ffa 9b3d df05 eb3d d0ad e7bf bfa8 26bd
000001b0: ee61 7a3d e948 123e 58ab ddbe 9388 64be
000001c0: 08ba 38be ae36 78bd e19d 0e3e becf 66be
000001d0: e48c 833d 04a6 65be cc5e 943d 4bc9 99bd
000001e0: 6f64 873e 784b 813e 7114 4dbe 99fb 69bd
000001f0: e030 a8be 139a 5f3e 3e08 d33e 8def 613d
00000200: 19ab c73d e134 093f eeed 6abd b9eb f5be
00000210: a006 e03e 22bc 4b3d 3d9f 8b3e 8f9e cd3e
00000220: 56c9 dbbe 1cbf d3be a6bd a6bd 435a 193c
00000230: 6f21 a6bd 8380 10bf deac c8be 777e 79bf
00000240: eaaf 33be 3580 463e 07d4 82bd 19de 903e
00000250: d869 5ebe 78b7 913d b394 4d3e 803c ad3d
00000260: 9c70 473e f38f a43e 9559 353c fe60 bfbe
00000270: f950 b3be 35bd bfbd c2c4 e03d fa46 51be
00000280: 1431 f5be 7a29 363d 5139 8e3e 0337 1b3a
00000290: 7412 4bbe 2bef 19bd 2a12 0dbe 03d2 ebbd
000002a0: 6198 5cbe 2e69 ccbe 5c17 ee3c 69a1 75be
000002b0: 92aa bb3e 69f1 d03d 5ba9 5b3e 8c5b eabe
000002c0: 7da8 56be f911 5cbe d429 00be d862 2bbe
000002d0: 0d6e 703e c0d1 3abe 02fa bbbc 5746 343e
000002e0: 3a7f a0bc a38d 813e aa17 f93d 0203 f33d
000002f0: c244 1cbe d806 203e e60d 423e a3b6 4dbe
00000300: 6685 8bbb be51 1e3d 9e1f 67be 25a3 9cbd
00000310: 66d2 22bf 9678 b5be 2f68 7ebe 48fa 0d3e
00000320: 71c6 f33d d0d6 cc3d 8129 ad3e 3023 3e3e
00000330: 6fcb 0abe 282d 703e 14e7 05bf c8a4 46be
00000340: 9253 823c a31e d7be 1808 813e 0028 26be
00000350: dded 13be 9978 4a3e 9850 d4bb 101f aebd
00000360: 34dd 16bd e20a 0b3f 1724 65be 544d 9f3d
00000370: aa81 82be 1f8b 753e 66cb 76bd 3e24 c83d
00000380: 4c5f 31be 2fa2 1b3f 27bb 463e f6c8 8e3d
00000390: 573a 173e 2461 3a3e e724 b3be 63cc 7bbe
000003a0: c998 3dbf 4f17 b6be fa21 f93d 3132 babd
000003b0: f67a 663e f68b 0e3c 5455 7c3d dfd6 823d
000003c0: bf0a 853e 2448 c03b 5d7a 4abd d3cc ae3c
000003d0: 2f8b 88bb 1fc4 f5be 70a0 97bb cfb4 193e
000003e0: c56e bc3e 5a45 173e 31fb d5be f5cd 443e
000003f0: f88d 5a3d a97c 973d 0dce c9be 1e72 e03d

proj_bih.weight f4 [96, 8]
-0.21570106 -0.093580656 0.022839315 0.18391344 -0.2239995 0.1960155 -0.13262156 0.008356513
0.11409591 -0.31439963 -0.047621142 0.10973402 0.20469421 0.11829676 0.21312973 0.09284109
0.011915454 0.019284887 -0.30655205 0.2508709 -0.18375696 0.17644107 -0.2597265 0.17510673
-0.29558468 -0.033918418 -0.3565 -0.20813394 0.15898748 0.012001411 0.21869247 -0.4035184
-0.070004396 0.28429407 0.42020103 0.08205784 0.24414198 0.27817106 -0.051610623 0.011933311
-0.15652075 -0.07378194 -0.17865108 0.061184075 -0.4506832 0.20890138 -0.22035168 -0.07658905
-0.13765086 -0.3976488 -0.37542027 -0.012358038 0.21675351 -0.43277714 0.28771904 -0.22110212
-0.35405138 -0.44089758 0.0034033551 -0.14372046 -0.14334147 -0.024616348 -0.16256352 -0.41064698
-0.36679202 -0.14851935 -0.03985252 -0.29717606 -0.17638661 -0.05869449 -0.0895342 -0.0073030842
0.05042578 -0.05843358 -0.15812695 -0.093266666 0.054646574 -0.35402364 -0.09864644 0.037658703
0.39671263 0.22818482 -0.22689782 -0.117831126 -0.14221838 -0.28991565 -0.10329122 -0.2303459
0.21250415 -0.4210006 -0.37047553 -0.36864662 -0.006815076 0.16507836 -0.28890476 -0.3428127
-0.1220875 0.21803065 -0.24215013 -0.25611103 -0.042675026 0.12150099 -0.09766252 -0.1570681
-0.19164048 -0.26840553 0.07203597 -0.29987153 0.015967857 0.17402351 0.4261278 -0.17254373
0.30345947 -0.25301066 -0.097028196 0.18893836 -0.16274029 0.02447119 -0.059902884 -0.15943474
-0.32302827 0.23524024 0.10875105 -0.30260214 -0.15503292 -0.3009756 0.25923356 -0.36290893
-0.10730722 -0.087590046 -0.12831375 0.18549475 -0.18739286 0.116645224 -0.1673332 -0.16924809
-0.28105345 -0.074872255 -0.19817936 0.38545385 -0.091542564 0.26684463 -0.09661367 0.07624389
-0.30667567 -0.10719054 -0.011897771 0.2926471 -0.051347353 0.054536782 -0.033232488 -0.16398084
-0.29704326 0.2056351 -0.18072729 0.08191234 0.02612889 0.12793891 0.24489492 -0.21269663
0.16361609 -0.14155792 -0.015438972 0.22974661 -0.006948974 0.04754502 0.1564646 -0.3270663
-0.23482178 -0.15981558 -0.12132193 0.03029386 -0.11618618 0.018002162 -0.36195958 -0.03684424
0.38594896 -0.23832968 -0.38618526 -0.49492675 0.25571752 -0.1356121 0.43855608 -0.3428809
-0.3475713 0.07391389 0.036677837 0.04935942 0.22953986 -0.08893135 0.06213957 0.22493646
-0.11073426 -0.25179142 -0.3093321 -0.24066557 0.31405082 -0.05541419 0.22269692 0.07569478
-0.24930641 0.40600854 -0.27843204 0.18962355 0.19005829 0.22414137 -0.3030981 -0.12863779
0.071242176 -0.2922505 0.25679636 -0.2747788 -0.13164456 0.16481552 0.06037336 -0.2681844
-0.063657306 0.18638721 0.3399361 0.30525967 0.23721042 -0.29285493 -0.15170354 0.06077558
-0.03790397 0.051051635 0.18879509 0.18668243 -0.037803233 0.11497888 0.057427056 0.11803643
0.08436127 -0.032358784 0.0901517 -0.040637136 0.2324537 0.14012696 0.15523094 -0.15070526
-0.016237047 0.035549555 0.33497488 0.20197818 0.25796336 -0.23593383 0.09592979 0.2106984
-0.0681772 -0.16595155 -0.1258756 0.30919358 -0.025337126 -0.26092204 -0.39962494 -0.32595462
00000000: bde0 5cbe 37a7 bfbd 8419 bb3c ce53 3c3e
00000010: 2060 65be 4ab8 483e f2cd 07be c2e9 083c
00000020: 1eab e93d fdf8 a0be 630e 43bd 3bbc e03d
00000030: 5c9b 513e 9245 f23d ae3e 5a3e 7823 be3d
00000040: 0939 433c 57fb 9d3c 64f4 9cbe 2772 803e
00000050: c92a 3cbe f8ac 343e dffa 84be 2e4f 333e
00000060: e056 97be 0aee 0abd 2b87 b6be 1021 55be
00000070: 9dcd 223e 91a1 443c ebf0 5f3e f799 cebe
00000080: 775e 8fbd fe8e 913e 9724 d73e f10d a83d
00000090: 5b00 7a3e 706c 8e3e a965 53bd ef83 433c
000000a0: fa46 20be fc1a 97bd 4ff0 36be 279c 7a3d
000000b0: f3bf e6be 3eea 553e dfa3 61be b8da 9cbd
000000c0: 59f4 0cbe a098 cbbe 1637 c0be 5e79 4abc
000000d0: a2f4 5d3e f794 ddbe e94f 933e 9868 62be
000000e0: 3946 b5be 54bd e1be d30a 5f3b 752b 13be
000000f0: 1bc8 12be 39a8 c9bc 0d77 26be 5240 d2be
00000100: 2acc bbbe 7515 18be 653c 23bd 7627 98be
00000110: b19e 34be a269 70bd b55d b7bd b64e efbb
00000120: 438b 4e3d 0d58 6fbd 08ec 21be 9802 bfbd
00000130: 16d5 5f3d 9642 b5be 2507 cabd 0340 1a3d
00000140: eb1d cb3e 48a9 693e e757 68be 7251 f1bd
00000150: b2a1 11be d36f 94be 598a d3bd ccdf 6bbe
00000160: b09a 593e 648d d7be f8ae bdbe 40bf bcbe
00000170: 0051 dfbb 4d0a 293e 53eb 93be 2585 afbe
00000180: 0309 fabd 6d43 5f3e 34f6 77be fc20 83be
00000190: 02cc 2ebd 83d5 f83d 4a03 c8bd 76d6 20be
000001a0: 673d 44be 736c 89be 9887 933d c388 99be
000001b0: 06cf 823c 3833 323e 6c2d da3e 4eaf 30be
000001c0: 0a5f 9b3e 9d8a 81be b8b6 c6bd 0f79 413e
000001d0: 64a5 26be ce77 c83c ba5c 75bd dc42 23be
000001e0: f663 a5be d1e2 703e dfb8 de3d abee 9abe
000001f0: f3c0 1ebe 7919 9abe 43ba 843e 33cf b9be
00000200: e3c3 dbbd 6962 b3bd ae64 03be 56f2 3d3e
00000210: eae3 3fbe b1e3 ee3d 6559 2bbe 5f4f 2dbe
00000220: 3de6 8fbe a056 99bd 88ef 4abe 355a c53e
00000230: ab7a bbbd dc9f 883e 63dd c5bd c225 9c3d
00000240: 9804 9dbe b786 dbbd deee 42bc d7d5 953e
00000250: 9a51 52bd f661 5f3d ca1e 08bd 98ea 27be
00000260: 0e16 98be 0292 523e 9310 39be a8c1 a73d
00000270: 410c d63c 6b02 033e bcc5 7a3e 25cd 59be
00000280: fa8a 273e 8ff4 10be bef3 7cbc b242 6b3e
00000290: 38b4 e3bb 91be 423d 4238 203e 3c75 a7be
000002a0: 1f75 70be b2a6 23be a277 f8bd d42a f83c
000002b0: 05f3 edbd 4579 933c c452 b9be fce9 16bd
000002c0: 1a9b c53e b20c 74be 13ba c5be 0a67 fdbe
000002d0: 68ed 823e e6dd 0abe 6c8a e03e 168e afbe
000002e0: def4 b1be 2a60 973d 803b 163d 1a2d 4a3d
000002f0: 7f0c 6b3e a421 b6bd 1086 7e3d be55 663e
00000300: a5c8 e2bd ceea 80be c760 9ebe 0971 76be
00000310: 45cb a03e fdf9 62bd a90a 643e dd05 9b3d
00000320: 2e4a 7fbe 5ae0 cf3e a58e 8ebe ad2c 423e
00000330: a49e 423e 5185 653e ad2f 9bbe a0b9 03be
00000340: 6be7 913d dca1 95be d07a 833e cfaf 8cbe
00000350: d5cd 06be 66c5 283e 0e4a 773d 774f 89be
00000360: c35e 82bd 4adc 3e3e 1b0c ae3e ff4a 9c3e
00000370: 4ae7 723e 15f1 95be 2c58 1bbe d1ef 783d
00000380: 3141 1bbd 851b 513d 8053 413e ae29 3f3e
00000390: 90d7 1abd 0c7a eb3d a238 6b3d 15bd f13d
000003a0: 9ac5 ac3d a58a 04bd 74a1 b83d 2073 26bd
000003b0: 5808 6e3e 717d 0f3e dcf4 1e3e 7b52 1abe
000003c0: 8e03 85bc 699c 113d d481 ab3e 5ed3 4e3e
000003d0: c613 843e a398 71be d676 c43d 52c1 573e
000003e0: 7da0 8bbd 34ef 29be 89e5 00be 9f4e 9e3e
000003f0: ce8f cfbc 9397 85be a49b ccbe 86e3 a6be

proj_bih.bias f4 [96]
-0.16152678 0.30178854 0.11457069 0.21410163 -0.09991726 -0.16354536 0.2824839 0.20176889
0.08170726 -0.11089136 0.17424168 -0.18984383 -0.12119618 -0.21262363 0.20712376 0.20617372
0.23281106 -0.07176292 0.099742964 0.37915912 -0.17673941 0.37407315 -0.2217116 -0.252821
-0.11705257 0.23413631 0.12590253 -0.18931751 -0.20835863 0.3562173 -0.02498021 0.16924606
-0.47157535 -0.02878854 0.5067613 -0.44032273 -0.1644454 0.26378036 0.03742867 0.36304745
-0.50531477 0.057362556 -0.12803026 -0.48429427 -0.5391087 0.45285338 0.36581466 -0.049303234
0.047661852 -0.113261 0.078614324 0.18912053 0.04236867 -0.32749897 0.11541047 -0.6732665
-0.036671452 -0.23567553 -0.22899702 0.076998025 0.15746823 0.117292866 0.62617666 -0.13839953
-0.06157899 0.19977246 -0.09169514 0.046585925 -0.23903884 -0.3631689 0.15031834 0.06388125
-0.11321791 -0.12420274 -0.3375807 -0.10049923 0.29454124 -0.2891616 0.25479433 -0.3131921
0.024274837 -0.32060176 0.13508904 0.3124265 -0.20646465 -0.22998093 0.29482174 -0.03843886
-0.294113 0.08967589 0.15539844 0.22228248 0.19721942 -0.2010357 -0.030126438 0.17945893
00000000: 4767 25be 0784 9a3e 0aa4 ea3d 753d 5b3e
00000010: 6ca1 ccbd 6f78 27be bba1 903e 819c 4e3e
00000020: 2356 a73d 021b e3bd 696c 323e 6c66 42be
00000030: b435 f8bd 02ba 59be 4018 543e 341f 533e
00000040: 0666 6e3e 70f8 92bd 0a46 cc3d 2521 c23e
00000050: 2dfb 34be 8486 bf3e 5e08 63be c171 81be
00000060: 42b9 efbd 6ec1 6f3e 98ec 003e 73dc 41be
00000070: f75b 55be 1d62 b63e 4ca3 ccbc d74e 2d3e
00000080: 5372 f1be f2d5 ebbc 1cbb 013f fb71 e1be
00000090: 6064 28be 380e 873e ce4e 193d 5be1 b93e
000000a0: 4f5c 01bf 00f5 6a3d 5d1a 03be 6bf5 f7be
000000b0: 0703 0abf 66dc e73e 0f4c bb3e 30f2 49bd
000000c0: 1339 433d 62f5 e7bd 8c00 a13d d0a8 413e
000000d0: c58a 2d3d f2ad a7be 535c ec3d 315b 2cbf
000000e0: ce34 16bd ed54 71be 327e 6abe 24b1 9d3d
000000f0: 5a3f 213e 3e37 f03d 1d4d 203f 9bb8 0dbe
00000100: 403a 7cbd 2791 4c3e a9ca bbbd e2d0 3e3d
00000110: 99c6 74be 46f1 b9be 0ded 193e 2cd4 823d
00000120: cbde e7bd 025e febd 61d7 acbe 8ad2 cdbd
00000130: 1cce 963e fd0c 94be 6774 823e b75a a0be
00000140: 06dc c63c ea25 a4be c854 0a3e 5ef6 9f3e
00000150: 786b 53be 1f80 6bbe e0f2 963e 1172 1dbd
00000160: fb95 96be fea7 b73d c520 1f3e 059e 633e
00000170: e3f3 493e 4ddc 4dbe b8cb f6bc 15c4 373e

proj_bhh.weight f4 [96, 8]
0.21294498 -0.0035410973 0.15921383 -0.39391375 -0.39075148 -0.12688178 -0.22087452 -0.4616285
0.18777233 0.17715922 -0.039583396 -0.3618847 -0.14057392 -0.47979498 0.4155373 -0.3054522
0.044939805 0.26130795 -0.22379228 0.18510167 -0.24418217 0.17566654 -0.123695225 -0.098738834
-0.2195921 -0.067431435 -0.17748359 0.01756334 -0.0795069 -0.31781793 -0.25424445 -0.42610136
0.0074432106 -0.0675933 -0.15189072 0.40329602 -0.11573622 -0.27560318 0.079235315 0.23256262
0.030351264 -0.37903634 0.16222611 -0.30959702 -0.38070178 -0.3539679 0.16417763 -0.19556428
0.34965193 -0.30613923 -0.16168869 0.1595828 -0.12933157 0.13345155 -0.11625657 -0.08186263
0.034989282 -0.21485172 0.24073635 -0.31660032 -0.101350196 -0.2674344 -0.15760674 -0.22164705
0.06030507 0.33734575 0.219733 0.18868543 -0.3306339 0.056966983 -0.17330319 0.119544245
0.04711571 0.14880209 -0.04444651 0.1666475 -0.4118307 -0.34472978 -0.0018038073 0.019190291
0.20091146 -0.33273676 0.016649207 0.07739167 -0.09257964 -0.019879445 -0.16114555 0.06835297
0.17557164 -0.46248075 0.27225232 0.1429089 -0.071144655 0.03854447 0.21253577 -0.20338854
0.14999616 -0.21263069 -0.20206997 0.0205427 0.0790455 0.07343344 0.035698496 0.12814988
-0.013198814 -0.15347247 0.26349372 -0.30248615 0.07053036 0.03835497 -0.010321553 0.13934974
0.31930903 0.006744146 0.14500326 -0.07454351 0.1838304 0.12989773 0.3653357 0.16001196
0.21374552 -0.15213323 -0.013285524 -0.016154014 0.18330131 -0.33776233 -0.26118535 0.29655534
0.37032464 -0.23091874 0.28454864 0.112932764 -0.44280848 0.17261751 -0.012104044 -0.2331976
0.10723341 -0.19084343 -0.30700126 0.45128056 0.032214638 0.077533774 0.09932963 0.27793562
0.07668354 -0.1925524 -0.29605737 -0.15815021 0.1592441 -0.21020478 0.29704604 -0.23156089
0.011892119 -0.03373812 -0.22187434 -0.15243912 -0.391022 -0.030046169 -0.39419332 -0.1013789
-0.067138836 -0.15214413 -0.20545249 -0.33410734 0.091001414 -0.14455491 0.29180977 -0.18334365
0.36636102 -0.31985927 -0.008185392 -0.2036897 -0.40084597 0.3616928 -0.31884813 0.1924678
0.06774891 0.15454681 -0.15249696 -0.1201859 0.08821582 0.08015041 0.23199959 -0.27530637
-0.39358506 -0.11501967 0.17524147 0.18201979 -0.25999263 0.18565018 -0.08380153 -0.24750262
0.17887782 -0.16068476 0.041878007 0.24674915 -0.0352033 -0.04055613 -0.45537943 0.13280681
0.38589934 0.134514 -0.17246272 0.25636166 0.35535106 0.013690247 0.028671663 -0.23039356
-0.33371717 0.057293933 0.06538175 0.053276487 -0.070046015 0.15137483 0.045276795 0.0044783615
0.26363793 -0.10787623 -0.27353197 0.01479294 -0.20343637 0.10439252 0.040867273 0.0930518
0.27140877 -0.2677028 -0.27868074 -0.0939949 -0.34953347 -0.21437393 0.031189058 -0.18367846
-0.29174283 0.08104641 -0.27574274 0.145415 -0.07140279 -0.14695972 -0.12765215 -0.17053811
-0.20721407 -0.03384249 -0.114609316 -0.052813753 -0.23149988 0.040098626 -0.40604827 -0.14075696
-0.4682813 -0.31017205 0.13045532 -0.07488086 0.04567108 0.28382137 -0.21426873 0.093363926
00000000: 400e 5a3e c111 68bb f308 233e 10af c9be
00000010: 9410 c8be 4ced 01be ee2c 62be 925a ecbe
00000020: 6447 403e 3a69 353e 3322 22bd f448 b9be
00000030: 9cf2 0fbe b0a7 f5be 4ec1 d43e 3b64 9cbe
00000040: cd12 383d 28ca 853e ce29 65be 4b8b 3d3e
00000050: e40a 7abe eee1 333e ec53 fdbd 9637 cabd
00000060: c0dc 60be 7e19 8abd 42be 35be fee0 8f3c
00000070: 83d4 a2bd 08b9 a2be 542c 82be f529 dabe
00000080: 2de6 f33b 5b6e 8abd 3e89 1bbe d17c ce3e
00000090: 1c07 edbd dc1b 8dbe 2046 a23d e524 6e3e
000000a0: 37a3 f83c 0d11 c2be 9a1e 263e 8083 9ebe
000000b0: 58eb c2be 483b b5be 2e1e 283e 0142 48be
000000c0: 9405 b33e 48be 9cbe b891 25be ac69 233e
000000d0: 7f6f 04be 86a7 083e ed17 eebd 98a7 a7bd
000000e0: ec50 0f3d 1702 5cbe 9783 763e 7019 a2be
000000f0: b190 cfbd 29ed 88be a963 21be 72f7 62be
00000100: 7302 773d 95b8 ac3e b001 613e c136 413e
00000110: d948 a9be 3656 693d 6476 31be 9dd3 f43d
00000120: 67fc 403d 935f 183e 8b0d 36bd a4a5 2a3e
00000130: 79db d2be 6c80 b0be bb6d ecba f534 9d3c
00000140: bcbb 4d3e 795c aabe eb63 883c 867f 9e3d
00000150: 659a bdbd 38da a2bc 5703 25be a4fc 8b3d
00000160: 0dc9 333e 47ca ecbe a864 8b3e b656 123e
00000170: 4ab4 91bd cee0 1d3d faa2 593e 1645 50be
00000180: 9898 193e dcbb 59be 6eeb 4ebe 2a49 a83c
00000190: 9be2 a13d 4564 963d 9638 123d b939 033e
000001a0: d73f 58bc e327 1dbe a6e8 863e 77df 9abe
000001b0: 3972 903d 1a1a 1d3d bb1b 29bc b3b1 0e3e
000001c0: 797c a33e fffd dc3b bc7b 143e 45aa 98bd
000001d0: 093e 3c3e e903 053e 480d bb3e 2dda 233e
000001e0: 1be0 5a3e d0c8 1bbe 87ab 59bc 6c55 84bc
000001f0: 57b3 3b3e 2fef acbe 16ba 85be 1ad6 973e
00000200: 319b bd3e f675 6cbe 5cb0 913e 4b49 e73d
00000210: cbb7 e2be a5c2 303e 0a50 46bc 5acb 6ebe
00000220: 319d db3d 766c 43be 452f 9dbe 3f0e e73e
00000230: 7ff3 033d 07ca 9e3d 556d cb3d 944d 8e3e
00000240: 430c 9d3d 752c 45be d594 97be 21f2 21be
00000250: e310 233e ec3f 57be 6b16 983e 4c1e 6dbe
00000260: 2ad7 423c fc30 0abd 0733 63be 0019 1cbe
00000270: 0934 c8be 6223 f6bc b5d3 c9be be9f cfbd
00000280: 1680 89bd accb 1bbe 2362 52be 1e10 abbe
00000290: f35e ba3d 3406 14be 1768 953e 70be 3bbe
000002a0: ac93 bb3e 98c4 a3be 061c 06bc 0894 50be
000002b0: af3b cdbe cc2f b93e 1040 a3be 4716 453e
000002c0: f1bf 8a3d 8541 1e3e 2a28 1cbe 0624 f6bd
000002d0: 7faa b43d e625 a43d 4d91 6d3e f5f4 8cbe
000002e0: fb83 c9be 6f8f ebbd 8072 333e 6563 3a3e
000002f0: c11d 85be 151b 3e3e 23a0 abbd 5471 7dbe
00000300: bf2b 373e 8c8a 24be 4688 2b3d cfab 7c3e
00000310: 5631 10bd 2f1e 26bd 7e27 e9be 82fe 073e
00000320: 9994 c53e 0abe 093e 119a 30be d641 833e
00000330: 93f0 b53e 0f4d 603c d6e0 ea3c 4aec 6bbe
00000340: fadc aabe 0bad 6a3d dee6 853d 7238 5a3d
00000350: 4974 8fbd 0102 1b3e 2974 393d 38bf 923b
00000360: 8dfb 863e 36ee dcbd 620c 8cbe 165e 723c
00000370: a051 50be bfcb d53d 7164 273d f191 be3d
00000380: 17f6 8a3e 5710 89be 3eaf 8ebe 6680 c0bd
00000390: 0df6 b2be d784 5bbe 3280 ff3c 3516 3cbe
000003a0: 515f 95be a9fb a53d 272e 8dbe abe7 143e
000003b0: a03b 92bd 9c7c 16be 3fb7 02be 8ba1 2ebe
000003c0: ed2f 54be 6c9e 0abd 4ab8 eabd 3c53 58bd
000003d0: 4e0e 6dbe 753e 243d 8fe5 cfbe 9822 10be
000003e0: 91c2 efbe dfce 9ebe 1496 053e 235b 99bd
000003f0: 9911 3b3d 0951 913e 4369 5bbe 9635 bf3d

proj_bhh.bias f4 [96]
0.12275739 0.013239573 0.21339233 -0.09067483 0.40728688 0.15242785 0.18747789 0.011017677
0.16880642 -0.22631593 -0.08493744 0.12714554 -0.21676034 -0.24353446 -0.36876532 -0.46591187
0.3128629 -0.07976511 -0.22995457 -0.28270817 -0.1557077 -0.24035148 -0.312263 0.32719332
0.1569843 0.02158824 -0.21214028 0.09442371 -0.19879949 0.39429483 0.16396406 -0.19771731
-0.40186885 0.021717101 0.5576828 -0.124930084 -0.12511584 0.11470131 -0.12978993 0.16616394
-0.016159888 -0.16620792 -0.050227586 -0.46745756 -0.5031864 0.24322553 -0.07570038 0.34147054
-0.4268668 0.05091091 0.60121053 0.065389305 0.14164342 -0.1938801 -0.119344875 -0.08882244
0.21239522 0.101261325 0.012088301 0.101637736 0.025380995 -0.2686442 0.25007796 -0.031013297
-0.1486854 -0.14664103 0.3382981 -0.15700686 -0.056895323 0.04956481 -0.27693686 0.4693065
-0.10573891 -0.4904959 0.14742954 0.3150924 -0.11573909 0.26245886 -0.027342288 0.033420444
0.2840882 0.23191276 0.11129081 0.43512657 0.13992612 -0.14366126 0.43523383 -0.1174718
0.0126282945 -0.05614484 0.1132672 -0.22978736 0.03524008 -0.014156327 -0.1256598 0.08068824
00000000: 3a68 fb3d cbea 583c 8583 5a3e bab3 b9bd
00000010: e887 d03e 0c16 1c3e 34fa 3f3e 7d83 343c
00000020: 97db 2c3e 5dbf 67be aef3 adbd 7132 023e
00000030: 6cf6 5dbe 1961 79be cfce bcbe 008c eebe
00000040: 912f a03e e45b a3bd 3679 6bbe 20bf 90be
00000050: d771 1fbe b31e 76be f0e0 9fbe e285 a73e
00000060: 7ec0 203e d2d9 b03c 4d3b 59be 3861 c13d
00000070: 1892 4bbe 03e1 c93e 32e6 273e 6876 4abe
00000080: c1c1 cdbe 10e8 b13c 4dc4 0e3f 58db ffbd
00000090: 5e1e 00be 85e8 ea3d a7e7 04be e126 2a3e
000000a0: be61 84bc 6932 2abe 71bb 4dbd 9956 efbe
000000b0: d3d0 00bf 1d10 793e cd08 9bbd 3ad5 ae3e
000000c0: 498e dabe f587 503d efe8 193f d4ea 853d
000000d0: f90a 113e 8188 46be 166b f4bd 8ae8 b5bd
000000e0: 227e 593e 1962 cf3d 020e 463c 7227 d03d
000000f0: ceeb cf3c bc8b 89be 380a 803e 990f febc
00000100: fc40 18be 1129 16be 6935 ad3e 68c6 20be
00000110: 120b 69bd 7804 4b3d abca 8dbe f148 f03e
00000120: a48d d8bd 4722 fbbe c5f7 163e cb53 a13e
00000130: 9e08 edbd 0261 863e effc dfbc e0e3 083d
00000140: 0274 913e 8a7a 6d3e 70ec e33d e9c8 de3e
00000150: cb48 0f3e f01b 13be f8d6 de3e 0e95 f0bd
00000160: e8e6 4e3c 22f8 65bd a2f8 e73d 614d 6bbe
00000170: e757 103d f0ef 67bc f6ac 00be e03f a53d
